models/classifier.pth (torch, 68647 bytes, 19 tensors)

conv.0.weight f4 [28, 1, 3, 3]
00000000: bc12 273e 4425 29be 3cc3 323e 4df9 963e
00000010: c6e4 c8bc bcf0 2e3d d70b 1c3d 190c 1abd
00000020: 239f 003c 8e5c 70bd ffa3 193e ee0b 69be
00000030: 462c f83d 2ac8 9ebe a495 2c3c 2b6f 8a3e
00000040: 4171 76be c893 273e d824 8e3c 8fe6 b33e
00000050: 9780 5b3d f1c6 93be 2c8d b43e 03fc 85be
00000060: 3d0f 353e 3631 78be 963a 54be cb21 26be
00000070: 868b 8a3e 5b36 4a3c 05f5 83bd cdf9 c9bd
00000080: e2a2 79be 02b3 41be f888 233e cf37 303e
00000090: 7a21 3f3e 6322 4c3d ad83 583e 4b79 8fbe
000000a0: d2d7 4bbe ccd0 a53c 3dc9 863e 7e23 123d
000000b0: 8a8a 743e d4bf aabc 3ba2 4cbe 6dd8 02be
000000c0: cbef b4ba fefd 88be bcef 783e 69ea 073c
000000d0: e96a 30bc 3270 3fbe 6dab 33be c811 b5be
000000e0: 7805 ee3d 9502 0f3b 4245 07be 2e22 5c3e
000000f0: 3ecd 663e d92e 113e eb84 863e 9215 313e
00000100: 0907 68be 76fb 2cbe d8ac 43be 467e 57be
00000110: e438 04be 748a 2ebe f02e 153e 627d 4dbd
00000120: 832e d5bc 4119 5e3e 2046 e1bd 9a33 983e
00000130: e572 983e 2be0 183e f7bc 803e ebee 273e
00000140: 279b b83e add5 8a3e ee64 0bbe 8d39 3d3e
00000150: c396 47be e754 1c3e 1306 69be 76d6 e13d
00000160: a3a1 07be ee27 63be 157e 853e fd5e 99be
00000170: 3017 77be 1f44 603e cbd3 af3d 00ed 4d3e
00000180: dc00 31be 9bac c63d 2d7d 1fbe 3821 7abe
00000190: 4715 863e 750f d93d c114 0abe 2299 a73d
000001a0: 027a 9cbe 2148 8f3e 9632 83bc 6eec 983e
000001b0: 76b6 68be 9b33 aabe 4130 7b3e 8159 ee3c
000001c0: 0ad6 95bd 6ee7 ce3d 1311 76be f400 80be
000001d0: c03b aa3c 57f5 0d3e 41a5 dd3d f259 bdbd
000001e0: 3628 2b3e 90bb 58be 5524 5a3e 90d8 b03e
000001f0: a1e7 813c 1480 e33d 2d5c 6ebe 6a4d 173e
00000200: 2e3c fa3d 4685 943e f173 c5bd e14d 69be
00000210: 4f6f 37be 25a9 073e 8464 463e e9a3 1cbe
00000220: dc9e 91be aa94 b23d 24c6 1dbd cc74 ac3d
00000230: 38c0 ab3c 2d89 2d3e 9990 4b3d 595d 7f3e
00000240: 89e7 70be f129 263d 4b27 37be 4af5 663e
00000250: 7734 2b3e 2505 fdbc e5a3 7abe e8ca 0a3e
00000260: 541a 6b3d 5e1e 02bd 15c0 95bc e3b8 8fbd
00000270: b4b6 aa3e 73a3 883e d8cb 4ebe 2bb2 f03d
00000280: f59c 69be 497d 933e 1ad1 a8bd 2935 25be
00000290: e7db 453b ea3f 9c3e 3643 a83e f5fe af3e
000002a0: 2833 99be 7509 e13d 8190 aebd 6a92 6abe
000002b0: 343f d63c 4728 69be 4cf5 bcbd b633 92bd
000002c0: 753c a73e f974 0ebe 015c 983e 04b7 fd3c
000002d0: b7b0 8bbe 6567 a83e 0db7 a5bd 952a 563c
000002e0: 8052 683e 978e 033e e6a0 a93e bf28 febd
000002f0: 7581 83bd 6906 d6bd 9a36 183e 111c 733e
00000300: 18a2 97be 326f 99bc d4c9 5abe 9e92 c3bc
00000310: ba85 1a3e 2598 9b3e 63e0 90be a086 8dbd
00000320: 3725 09be 0eca 23bd 4215 a3bd 0a3f b03c
00000330: 727d 36be 0a80 6f3c f7f7 20bd 504e 95be
00000340: 35e8 883e 4526 9dbd 8085 00be 977a ea3d
00000350: 4b3f a8be 192b 0ebe 27b0 fabd 571b c5bd
00000360: dbe7 6bbe df83 563e 3b59 393d 198b b7bc
00000370: 4b82 93be 63e6 543e 5dc1 0cbe 235c 04bd
00000380: 13b7 863e ee23 18be 6c02 8c3e a637 333e
00000390: b7ca 1bbe 6035 9abe 489e b43e b70c dc3d
000003a0: ddc0 a23d bd2b a83c d612 843e f39a 813d
000003b0: 7706 a03e b980 213d 49dc 5c3e a88e b23e
000003c0: 706f a2bb 3e20 9c3e f7bf 9c3e d7ec a6be
000003d0: 2a8b 44be 8411 6b3e da89 603e af44 5fbe
000003e0: 3e04 413e 9745 573e a4e2 5fbe 6027 693c
0.1631574 -0.16518122 0.17457289 0.29487076 -0.02452315 0.04271005 0.03809723 -0.037609193
0.007850441 -0.058682017 0.15003966 -0.22758457 0.121178195 -0.31012088 0.010533724 0.2703794
-0.2406664 0.16364968 0.017351553 0.3513684 0.05358943 -0.28862718 0.35263956 -0.26168832
0.17681594 -0.24237522 -0.20725474 -0.16223828 0.27059573 0.012342061 -0.06443218 -0.09862099
-0.24378541 -0.18915942 0.15970218 0.1720879 0.18665114 0.04983748 0.2114398 -0.28022227
-0.19906548 0.020241164 0.26325408 0.03567838 0.23880973 -0.020843424 -0.19983761 -0.12777872
-0.0013804374 -0.2675628 0.24310201 0.008295634 -0.010767677 -0.18695143 -0.17545862 -0.3536513
0.11622137 0.0021821607 -0.13210014 0.21497414 0.22539231 0.14178027 0.26273283 0.17293385
-0.22658934 -0.168928 -0.19108903 -0.21044263 -0.12912327 -0.17045003 0.14568686 -0.050168402
-0.026023155 0.21689321 -0.109997034 0.2972687 0.29775158 0.14929263 0.2514417 0.16399734
0.36055872 0.27116147 -0.1361272 0.18478985 -0.19491105 0.15266763 -0.22756223 0.11027233
-0.13245253 -0.221832 0.26072755 -0.29955283 -0.24129939 0.21900986 0.08585318 0.2010994
-0.17285484 0.09700891 -0.15575095 -0.24426734 0.26188108 0.10598651 -0.1348448 0.08183505
-0.30561835 0.27984717 -0.016015332 0.29867882 -0.22725853 -0.33242497 0.24530126 0.029095413
-0.07316215 0.101027355 -0.24029951 -0.25000727 0.020780444 0.13863121 0.10822535 -0.09245671
0.16714558 -0.211653 0.21302922 0.34540224 0.01585752 0.11108413 -0.2327735 0.14775625
0.122185096 0.2900793 -0.09641255 -0.22783615 -0.17913555 0.13248117 0.19374281 -0.15296902
-0.28441513 0.08719762 -0.03851904 0.08420715 0.02096568 0.1694686 0.049698446 0.24937953
-0.23525824 0.040567342 -0.17886083 0.22554508 0.16719232 -0.030886242 -0.24476583 0.13553965
0.057398155 -0.03176724 -0.018280068 -0.07017686 0.33342516 0.26687202 -0.20194948 0.11752733
-0.2281378 0.28806522 -0.08243008 -0.1613356 0.0030190886 0.30517513 0.32863778 0.34374204
-0.29921842 0.10988132 -0.08523656 -0.22907415 0.026153184 -0.22769271 -0.09226474 -0.07138769
0.32663313 -0.13911809 0.29757693 0.030971058 -0.2728326 0.32891384 -0.08091555 0.013071676
0.22687721 0.12847362 0.33130568 -0.124101155 -0.06421176 -0.104504414 0.14864579 0.23741175
-0.29615855 -0.01872978 -0.21366054 -0.023873623 0.15090075 0.30389515 -0.28296193 -0.06910443
-0.13393103 -0.039987616 -0.07963039 0.021514434 -0.17821291 0.014617929 -0.039298978 -0.2916131
0.2673966 -0.07673315 -0.12550926 0.114491634 -0.3286079 -0.13883628 -0.1224063 -0.09624355
-0.23037665 0.20948742 0.045251112 -0.022405194 -0.28810343 0.2079101 -0.13745637 -0.03231443
0.2631155 -0.14857456 0.27345598 0.17501697 -0.15214048 -0.30118847 0.3527701 0.10744613
0.07946942 0.020528669 0.2579562 0.06328382 0.31254932 0.0394294 0.21568407 0.34874463
-0.004957132 0.3049335 0.30615208 -0.3260257 -0.19193712 0.229559 0.21927586 -0.21803544
0.18849275 0.2102264 -0.218638 0.014230579

conv.0.bias f4 [28]
00000000: c26f 5ebc 94e8 7dbe a6d4 9f3d 51e7 6c3e
00000010: db8b 96be 1dab 503d b996 83be 4862 38be
00000020: cced a43e d6ee 3dbd 088f b13e 0024 a83b
00000030: 85ea 46be bba8 65bd b84c 10be 4cb2 8cbd
00000040: fd57 45be fb97 1fbd e794 82bd 3fd2 3abe
00000050: 8f0f a53e 20a1 48bd 60e8 85be e65d 14be
00000060: f63a 45be 64fc 17bd 7271 68bd 9891 393e
-0.01357645 -0.24795753 0.07804231 0.23135115 -0.29403576 0.050944436 -0.2570093 -0.18006241
0.32212675 -0.04637035 0.34679437 0.0051312447 -0.194254 -0.056069117 -0.14091766 -0.06869945
-0.19271846 -0.0389633 -0.06376057 -0.18244265 0.32238433 -0.048981786 -0.2615385 -0.14488944
-0.19260773 -0.037105933 -0.056748815 0.18121946

conv.1.weight f4 [28]
00000000: 1167 7a3f bb0a 783f 8819 823f a577 823f
00000010: aa17 833f 434d 833f 988d 843f 3ffc 7b3f
00000020: e8dd 763f db57 783f 7d72 843f e25f 783f
00000030: 4c47 7d3f af0e 783f a72e 773f bbe5 7a3f
00000040: f120 783f 6695 833f 0ca2 763f f625 843f
00000050: 442e 833f 9f4d 843f b2a7 833f bbec 773f
00000060: 7e4f 7c3f 5b8d 823f 17cc 823f 4881 7f3f
0.97813517 0.96891373 1.0164042 1.0192763 1.0241597 1.0257953 1.0355711 0.9843177
0.9643235 0.97009057 1.0347439 0.97021306 0.98936915 0.96897405 0.9655556 0.9800679
0.96925265 1.0279968 0.96341014 1.0324085 1.0248494 1.0336188 1.0285552 0.968456
0.98558795 1.0199388 1.0218533 0.9980664

conv.1.bias f4 [28]
00000000: 1710 05bd b9aa b73c da59 0abd 43a9 f53c
00000010: 6175 f03b a6e9 013d 5f90 f0bc 1eb3 04bc
00000020: 1d2d cfbc c4fd eebc b332 d6bc eb71 06bd
00000030: fa8a aabc 9b0e 05bd aef1 013d 5615 13bc
00000040: b6dc f5bc 61b5 d63c 3b99 cfbc 334a 3d3b
00000050: bcbc 083d 1ea5 063d 6425 d8bc 92ab 8cbb
00000060: e8b5 143d f70e fbbc ecef b9bc 1e52 133d
-0.032486048 0.022420274 -0.033777095 0.029987937 0.0073382114 0.031716965 -0.029365717 -0.0080993455
-0.025290066 -0.02917374 -0.026147222 -0.032823484 -0.020818222 -0.032484632 0.031724624 -0.008977255
-0.03001247 0.026209535 -0.02534162 0.0028883338 0.033383116 0.03287231 -0.026385017 -0.0042929137
0.03630629 -0.030646784 -0.022697411 0.035966985

conv.1.running_mean f4 [28]
00000000: 626b cb3d a5ab 96be 25fe 623d 4ae8 503e
00000010: 4906 34be 95cd cabd 7dc5 23be fdbe cdbe
00000020: 4e43 413f 2b32 f6bd 816b af3e f673 c43d
00000030: bbc1 bfbe 1a68 073e 3742 c4bd 5671 4dbb
00000040: ea19 3ebe c49f 9f3d e833 ad3d 95b8 2dbe
00000050: cb49 ea3e 10f5 d43b 1c7c e4be e84a b0be
00000060: 47aa 30be 02b7 983d 9cc9 dd3e b5db 1e3e
0.09932591 -0.2942783 0.055418152 0.20401111 -0.17580523 -0.09902493 -0.15993305 -0.40184775
0.75493324 -0.120212875 0.34261706 0.0959243 -0.37452492 0.13223305 -0.09582942 -0.003134807
-0.18564573 0.07794145 0.08457166 -0.16964944 0.45759425 0.0064989403 -0.44625938 -0.3443215
-0.17252456 0.07456781 0.43317878 0.15513499

conv.1.running_var f4 [28]
00000000: 553c 133d 73d4 943c 9f2a ce3c ddd3 7a3c
00000010: 8cb4 1e3d d78a 543d eb71 5b3d 7267 d83d
00000020: c135 d03e 510d e73c 1f98 8e3c bd68 da3c
00000030: 297c b03d 9e6b b33d 2236 083c bf42 e93c
00000040: b936 523c 422d 313d 0e23 863d e1d7 e43c
00000050: 69f5 3a3d 28e8 063d 7341 a53d 18f8 ba3d
00000060: 1d6a b43c 44cd 2a3d e171 013f 4e7c 883c
0.03594621 0.01816771 0.025166808 0.015309301 0.0387464 0.05189022 0.053575438 0.10566606
0.4066601 0.028204592 0.017406521 0.026661271 0.08617432 0.08760761 0.0083136875 0.02847421
0.01283043 0.04325605 0.06549655 0.02793497 0.045644198 0.032936245 0.08069124 0.091293514
0.022023255 0.041699663 0.5056439 0.016660836

conv.2.weight f4 [28, 28, 3, 3]
00000000: fcf8 183c 3e06 e8bc 25c0 61bb 247a 97bd
00000010: 7f6a 71bc 30d0 1d3c b906 87bd c795 9f3d
00000020: 800e e2bc 34b1 8a3d 1afb f4bc ce9c aa3d
00000030: 25a0 50bc 6465 183d e6fe 6b3b ef93 06bc
00000040: fb84 0dbd 5bca ae3d 6c57 013c 35f3 d9bc
00000050: b74d 3abc e3ca a5bd 8ae9 14bd 489c 603c
00000060: 2e05 6a3c 44e1 0d3c 3b49 36bd 3950 903d
00000070: 0add 0dbb c9ad 5fbd f969 56bc bcc1 0fbc
00000080: 77b7 b5bd 1f1f 4abc 645c 88bd ebd5 5abd
00000090: e4dd 57bd f943 343d d64c 81bd 5061 b6bc
000000a0: 8240 d6bb 0299 56bd 97b9 1b3d 8508 a53d
000000b0: 8b17 053d fa33 df3c 4d2a 22bd 8a46 6b3d
000000c0: 7ad2 103d 197b 3fbd 7aca 37bd 02d8 3d3d
000000d0: 25bf 0b3d 66cd 043a c8b7 e93c ea1c 913c
000000e0: 5b7b 1a3c 8803 463d c229 313d ac79 dfbc
000000f0: 06f4 23bd ed17 d83b 36e6 04bd c954 053d
00000100: 28cf d7bc d8cb eebc 3889 7ebc 89e1 ad3c
00000110: 8961 75bc 2880 9fbc 451f 83bd 25d8 b4bd
00000120: 95e9 af3c e644 0fbc e720 d13c ebab 80bd
00000130: a7b6 3b3d bb0a d53c 06f4 263c 6631 8d3d
00000140: 0120 dfbc 9c7c 6fbd 1b24 a2bd 276d 783c
00000150: 5d4a 93bc de7b c7bd 3ccb 903b c405 613c
00000160: 17bd 73bd 0e21 b43d a27c 9ebc e495 d13c
00000170: 660f c23d 9b21 563d bd16 99bd c557 b23d
00000180: b424 b5bd 89f1 b7bc 94d6 303d 1a02 15bb
00000190: 292c c73a 921a 5dbd d2c2 78bd 9a0a 803d
000001a0: de91 eabc 6440 d33c bc45 1abc 07d2 a03d
000001b0: 5c60 c8bc 7c1b 883d 3fd2 66bd 5ee3 af3d
000001c0: fc89 2ebc 1ebf adbd 8c40 5a3d 5e72 4f3b
000001d0: b5f2 13bd b92b ee3b 74fb 64bc 1ef7 0e3c
000001e0: 8b6a 2abd 094d 813d 861a be3d b092 fbbc
000001f0: 70ec 4f3d 7f43 94bc 1150 62bc d04d a83c
00000200: 16bf b23c 00de 9ebc 16c5 a13d fd1b e93c
00000210: 0e9b c73c 3c74 273c cd21 a5bd 08e1 2dba
00000220: db27 923c b49a f03c 0ae4 903d 3c2e 0dbc
00000230: 257b 733c ec05 92bd 8e80 a43d 7f90 9d3b
00000240: d6ef 173d 580e 263d 2082 603d b260 9aba
00000250: 4ee6 283d 1e0a 96bd ef1d 94bd d173 a3bd
00000260: 44ba a7bd 5ea5 8d3c fc85 e3bc 61d1 933d
00000270: 08a5 8e3c 7548 aa3d 19dd 2fbc a0b3 203c
00000280: 796a bdbd fff7 1a3d 0dbd c7bd 28a8 bb3c
00000290: 4534 04bc bbce 8e3d 96cc c73d 090c b7bc
000002a0: 61ec b6bd 0d7f 3f3d 86b6 853d 81d9 993d
000002b0: 6008 953d 2aaf 1a3b abca 993d 13cf 8c3d
000002c0: 1c86 d9bc b2aa 5f3d bfd8 59bc 1e84 e7bb
000002d0: a14a d1bc 0ac6 023d 921b b93c 8974 e93c
000002e0: 3600 54bc 3713 983d cb37 0bbd 0b7f 50bd
000002f0: ed57 00bd 0773 d6bc fa4f 7a3c 554f 273c
00000300: 39e7 163b 1694 99bc 93c7 ec3b 88a3 433d
00000310: 8f5b b03d a727 8d3c 771b 71bc b0ee 953d
00000320: 313a 14bd 149a a1bb 549a 17bd 983e 9ebb
00000330: cb03 c33c b317 3ebd 3763 6abc 5a78 6b3a
00000340: d0bd 25bc 87c6 2abd a7cb 003d 220a b1bd
00000350: 1892 f5bc 123e 893d fab1 0eba f157 abbd
00000360: 291f 3c3c c456 cebc e7ec 023b 17ed 883d
00000370: b387 f2ba 4510 afbd f3fb 693d 9d0e 3f3d
00000380: d9a0 a23b d5df 36bd 1fb6 67bc d4c4 e83c
00000390: 7923 5dbd f7d8 6b3d f4fe b0bd 76fa fabc
000003a0: 6c70 043d 3e1b 153d 4165 c83c 940b 2eba
000003b0: 3f90 bebb 07b6 4bbc 5a1e 6d3d b72f cd3b
000003c0: bdd4 da3c 1f71 563d 32ff 663c f456 3dbc
000003d0: 50b5 003c f569 74bd 0d8a b43d c4d4 bcbb
000003e0: 13d3 a9bc 142a b43c 0351 8c3c 8036 47bd
000003f0: 586b 5abd 6e2d a6bb 9f81 12bd 9d70 99bc
0.009336706 -0.028323289 -0.0034446802 -0.07396343 -0.014734863 0.009632155 -0.06593079 0.0779224
-0.027594805 0.0677208 -0.02990489 0.08330689 -0.012733494 0.03720607 0.0036010086 -0.008213981
-0.03455065 0.0853469 0.007894378 -0.026605228 -0.011371068 -0.08095338 -0.036355533 0.013709135
0.0142834615 0.008659665 -0.04450343 0.07046551 -0.0021646642 -0.054609094 -0.013086789 -0.008774217
-0.08872884 -0.012336521 -0.06658247 -0.053426664 -0.052701846 0.044010136 -0.063134834 -0.0222632
-0.0065384516 -0.052392013 0.03801879 0.080582656 0.032493155 0.027246464 -0.039591122 0.05744032
0.035356976 -0.046748254 -0.04487083 0.04634858 0.034117837 0.0005066007 0.028530017 0.017713983
0.009428824 0.04834321 0.043252714 -0.027279697 -0.04002764 0.006594649 -0.03244611 0.03255156
-0.026343897 -0.029149935 -0.015535645 0.021225708 -0.0149768675 -0.01947029 -0.064024486 -0.08830289
0.021473685 -0.008744454 0.025528384 -0.06282791 0.045828488 0.026006093 0.010190016 0.06894188
-0.02723694 -0.058468446 -0.07917043 0.015162743 -0.017979795 -0.09740423 0.0044187587 0.013734285
-0.059506502 0.08795367 -0.019346539 0.025584169 0.09475593 0.052278142 -0.0747504 0.08708147
-0.08844891 -0.02245404 0.043173388 -0.0022736848 0.0015195656 -0.053980418 -0.06073267 0.06252022
-0.028634008 0.02578754 -0.00941604 0.078525595 -0.02446001 0.06645867 -0.05635285 0.08588289
-0.010653015 -0.08483718 0.053284213 0.0031653862 -0.036120135 0.0072683957 -0.013975967 0.0087259095
-0.041605514 0.063135214 0.09282403 -0.030709594 0.050762594 -0.01809859 -0.013813035 0.020544916
0.021819633 -0.019392967 0.07898919 0.028455729 0.024365928 0.0102205835 -0.080630876 -0.00066329585
0.01784127 0.029370643 0.07074745 -0.00861698 0.014860903 -0.07130036 0.08032332 0.004808485
0.03709396 0.040541023 0.054811597 -0.0011778085 0.04123526 -0.073261485 -0.07232272 -0.079810746
-0.08189824 0.017290767 -0.02777385 0.0721767 0.017412677 0.08314601 -0.010733866 0.009808451
-0.09248824 0.037834164 -0.097528554 0.022907332 -0.008069103 0.069730245 0.097558185 -0.022344606
-0.089318044 0.046752024 0.06528954 0.07512189 0.07276988 0.002360294 0.07509359 0.06875434
-0.026553206 0.054606147 -0.013296305 -0.00706531 -0.025548281 0.031927146 0.022596154 0.028497951
-0.012939503 0.0742554 -0.033988755 -0.050902408 -0.031333853 -0.026177896 0.015277857 0.010211785
0.0023026003 -0.01874737 0.0072259395 0.047763377 0.086112134 0.017230822 -0.014716021 0.07320917
-0.03618831 -0.0049316976 -0.037012413 -0.004829239 0.02380552 -0.04640932 -0.014305881 0.00089824724
-0.010116056 -0.041693237 0.031444218 -0.08644511 -0.02997689 0.06701292 -0.00054433907 -0.08366383
0.011482039 -0.025187857 0.001997763 0.06685846 -0.0018503576 -0.08548025 0.057125043 0.046644796
0.004963022 -0.044647057 -0.014142542 0.028414167 -0.053988907 0.05757996 -0.086423784 -0.030637007
0.032333776 0.036402933 0.024462344 -0.00066392985 -0.0058155353 -0.012433535 0.057890274 0.0062617916
0.02671277 0.052353974 0.014098929 -0.011556376 0.007855728 -0.05967136 0.088153936 -0.0057626683
-0.02073053 0.02199272 0.017128473 -0.04863596 -0.053325027 -0.0050713336 -0.035768148 -0.018730456

conv.2.bias f4 [28]
00000000: 80fc 26bd 9ddb 35bc b3de f6bc 7b5c 1e3d
00000010: e06d 763b 4489 f2bc 96ab 1f3d 978e 1abd
00000020: 0be4 113d 5b14 403d 1a8c bd3c 87fd b03c
00000030: 8e7d 083d 3fea 74bc 64dd 83bd 2436 463d
00000040: a6ef 773c 072c d43c 96e4 8abb 9a7b 083a
00000050: 396e a53d 7a1d 6e3b ecee 92b8 30cb e33c
00000060: 6d11 48bd f82d b63c 1714 223d 3ced e93c
-0.040768147 -0.011099723 -0.030135488 0.038662415 0.0037602112 -0.029606469 0.038981996 -0.03773364
0.03561787 0.046894412 0.023138095 0.021605266 0.033322863 -0.014948427 -0.06438711 0.048391476
0.01513282 0.0258999 -0.0042386753 0.00052064063 0.08077664 0.0036333487 -7.006325e-05 0.027806848
-0.048844744 0.022238716 0.03956994 0.028555505

conv.3.weight f4 [28]
00000000: dcb0 7c3f ea97 843f 1962 823f 0b41 763f
00000010: e43b 7e3f c555 7f3f 5cc2 773f 57d0 773f
00000020: f51c 843f 357f 843f ff75 783f 2b00 773f
00000030: aaec 763f 1ea5 833f 6627 843f cecb 843f
00000040: c750 843f 589b 763f 02d7 833f 5582 833f
00000050: c0a9 763f 8edf 763f c4b2 833f eeca 783f
00000060: 1d6b 773f 9ff5 7e3f 4564 843f 938d 833f
0.98707366 1.035886 1.0186187 0.96193 0.99310136 0.9974025 0.96780944 0.96802276
1.0321337 1.035132 0.9705505 0.9648463 0.9645487 1.0284765 1.0324523 1.0374696
1.0337151 0.96330786 1.029999 1.0274149 0.9635277 0.9643487 1.028893 0.97184646
0.96647817 0.9959354 1.03431 1.027758

conv.3.bias f4 [28]
00000000: f2a7 ae3c 5af3 d73c cd6a 123d 4b7b b33b
00000010: 9c35 af3c b7e7 553b 5ee7 f1bc ac9d d03c
00000020: a3a8 0cbd 84ba a2bc a81e 21bc 8402 ed3c
00000030: f7cd 2a3c b5c7 e2bc b0ee f8bc 06c8 01bd
00000040: 0694 903c fe76 183d 8c59 8f3c 036e b33c
00000050: 428f f33c 1df8 e53c 4102 c63c 9b8e 213c
00000060: 6eae b2bc d876 4abc 2b81 0c3d 0999 a6bc
0.021320317 0.026361156 0.035746384 0.005477344 0.021387868 0.0032639334 -0.02952927 0.025465809
-0.034340512 -0.019864328 -0.009833969 0.028931864 0.010425082 -0.027683118 -0.030387253 -0.031684898
0.017648708 0.037222855 0.017498754 0.021903044 0.029731397 0.028072411 0.024170997 0.00986066
-0.02181169 -0.012357436 0.03430287 -0.020336645

conv.3.running_mean f4 [28]
00000000: d8c0 ac3d 91eb 9e3e 4923 aebb 4273 353e
00000010: aec1 2fbe 39d5 01ba cd89 adbd d38c 2bbe
00000020: aef5 893d 39d3 4fbd 5066 9fbe 247e fe3d
00000030: e9c4 0e3d 8a4c 53bd d8fe 3dbe 8e8d b4bd
00000040: d80f 92bd b248 553e b3d7 eebd e9ad 51bd
00000050: ed2c f63d a083 513c 9677 fa3c 4e2a 30be
00000060: 5b09 37bd 0fb0 17be 29a5 1abd 3568 893d
0.084352195 0.31039098 -0.005314265 0.17719749 -0.17163727 -0.0004952732 -0.08473549 -0.16752939
0.06736313 -0.050738547 -0.31132746 0.12426403 0.034855757 -0.051586665 -0.18554246 -0.08816062
-0.07131928 0.20828512 -0.11662235 -0.051191244 0.12020288 0.0127877295 0.030574601 -0.17203638
-0.044686656 -0.14813255 -0.037755165 0.06709329

conv.3.running_var f4 [28]
00000000: 7f61 8d40 c40e 3440 0859 2c40 f790 1841
00000010: 876e d340 0313 5040 6038 8640 4fcd 4d40
00000020: a8c6 5740 52a8 4140 e387 1841 f290 9a40
00000030: 0e2d b240 af2a 8b40 0c6f 3941 2717 b23f
00000040: 8451 fe40 6f92 a040 e862 5540 72b2 5a41
00000050: 57f6 9f40 56d9 ee3f 9134 2a40 0270 9740
00000060: 303a 2c41 a408 a740 4266 9640 3144 a140
4.4181514 2.8134012 2.692934 9.535392 6.607242 3.2511604 4.1943817 3.215656
3.3715 3.0258985 9.533175 4.8301935 5.568 4.3489604 11.589611 1.3913316
7.9474506 5.017875 3.3341618 13.668566 4.998821 1.8660076 2.6594584 4.732423
10.764206 5.219805 4.6999826 5.039574

conv.4.weight f4 [28, 28, 3, 3]
00000000: 88e0 74bd 026a 4c3c c16d adbd 7c43 7cbc
00000010: fd2c 0c3d 976a 76bd 36db 0dbd 73c0 edbc
00000020: b16a be3c 8a6f 94bd a6d3 ee3c 4b0f a2bd
00000030: 01d1 bd3c 2bab b43d 6eb9 4cbd 27a1 a2bd
00000040: 453d 653d 226d 9b3c 6dd9 8cbd 7bfa 2cbd
00000050: e680 48bd 5581 65bd b22c 3e3c 0963 25bd
00000060: 603f e9bc 6569 98bd 3efd eebc 0b7c 5e3d
00000070: 6248 703d 1e71 f13c 810d 05bd 1411 453d
00000080: a49e c5bd a131 c4bc ef5a 413d 46aa b13d
00000090: 4b22 7a3d 8a17 c2bc 67ea 773d 6029 a93c
000000a0: dc24 70bd 882d c0bc 288e 153d daf8 adbd
000000b0: 930a 8fbd 015a 8c3d 8e79 35bd 68fe 72bc
000000c0: 3c58 e13b a8a7 87bd ec75 0a3b a2f5 4c3d
000000d0: 266e 97ba 0316 5cbc 4bec a3bc e3c4 d03c
000000e0: 04a5 7dbb a67e 1e3d b481 3d3d cf68 9b3d
000000f0: 2bbb ddbc f780 c3bc 2ad2 bb3c f19e afbc
00000100: eec5 e6bc 896b 883d c04f 503c b918 0dbd
00000110: 51ed a43c 24d3 c9ba 68a5 853d 8579 b43b
00000120: 3259 233d 6a12 a1bd f5fa 93bc 1eb2 cf3c
00000130: 97a3 8cbd 97ee 9d3b aae7 1d3c 2870 44bd
00000140: 061a bfbd 0c59 8e3d ffbb c43c 475e f23c
00000150: 45eb 7b3c c7f2 17bd b1e2 9f3d 6e49 29bc
00000160: ea82 e53c bd90 05bd 07a4 1fbb 35ec 76bd
00000170: 1da6 4e3d 76b9 cb3c f454 1c3d de8f bdbd
00000180: 41b9 b3bb c33b b4bc 1e64 a53c 8fb9 403d
00000190: 372f 37bc 6d3c c43d 41e5 163d fc41 c0bc
000001a0: a56b 13bc e406 8c3d 02c8 5bbc cc12 52bc
000001b0: c797 f3bc 6072 003d 6ff6 abbd 8a27 ffbc
000001c0: c125 babd 327f 97bc 3114 8abd e6b1 adbd
000001d0: 30d9 39bb 3ae0 1a3d 8c65 b4bd 58e1 2dbd
000001e0: 6799 b43b 0a0c 8fbd 2398 ebba efe7 c0bc
000001f0: 8251 b5bd b027 83bc aa90 20bc cd4b 03bc
00000200: 206a a3bd 281a 24bd 1a32 bd3c 4154 7bbd
00000210: 71ac e33c d1cd af3c 217b 70bd 4a7e b93b
00000220: 140f a03d 1866 373d cc55 343c c9bd 29bd
00000230: fc3b cf3b d6a7 9a3d ed59 a13d f0de b43c
00000240: b3d0 90bd 776d 9f3a 4556 7ebb cb30 c53a
00000250: bc11 413d 1856 73bc b5ca 263c ff8c dfbc
00000260: b625 35bd 53a1 413c 2db7 b8bd 7282 32bd
00000270: 4b1e 0ebd e749 4abb a654 65bd fcd8 d4bc
00000280: 6b5d 5d3c 0692 6ebd 8854 783d 3805 91bc
00000290: f216 0b3d 6fe9 413d 8d75 a4bd f737 26bc
000002a0: 8143 04bc ca73 243c 2a81 40bb 1727 c2ba
000002b0: 957e 383d e7d1 9d3c 1ccc 7abd fcd9 b53c
000002c0: 37f0 98bb 93d4 cabc 59f4 973d a21e be3d
000002d0: 47f7 13bc f0db 293d 72ab 84bd e264 91bd
000002e0: 2ccf 55bd c7d4 7d3c 6855 b4bc cc62 993c
000002f0: 36a0 bbbd da28 373c e872 b53b 47c6 283c
00000300: b28d abbc e675 8fbd 619a bdbd a27e 7dbc
00000310: 20b1 893c 832b fd3c 2f36 0b3d adb5 b0bd
00000320: 33f7 81bd 6df6 073d 4971 1e3d ebf7 abbd
00000330: 305f b6bc 7ea4 8cbc 8212 c53d eeb4 fabc
00000340: 93f7 3fbd 0786 d43c 7adb b33d ac75 4abd
00000350: b43e fa3c 7fb9 7e3c 1b56 35bd 578d 5a3c
00000360: dc3a 27bd 9b42 84bd 5e19 1cbd a4bb d63c
00000370: c48a babc 986c d13c 29e4 6e3c a859 183d
00000380: a966 493b 9c67 39bd 4c4a ebbc e1af 6fbd
00000390: e016 623c b9b8 0a3d 06d3 f9bc 5e6a cbbc
000003a0: 48a7 97bc 4637 89bc ac92 88bd 565b 4a3c
000003b0: bf2a c73c 52f5 273c 93e8 ac3d 48ad 15bd
000003c0: 728f 423c 80a1 803d d953 1abb 0f1e 46bd
000003d0: ac0e 8ebc 4846 75bd 2867 723d bf88 3c3d
000003e0: 3a1e 98bd 0d00 c7bb 365b a73d b529 e13c
000003f0: aed4 1e3b e12f 57bd a66c 7dbd fce8 83bd
-0.059784442 0.012476446 -0.084681995 -0.015396949 0.03422259 -0.060160246 -0.034632884 -0.029022431
0.023244234 -0.07247837 0.029153656 -0.07913073 0.02317095 0.0882171 -0.049981527 -0.079408936
0.055966634 0.018972937 -0.06877408 -0.042231064 -0.048951052 -0.056031544 0.011607336 -0.04037765
-0.028472602 -0.074419774 -0.02917349 0.054317515 0.05866278 0.029472884 -0.03248358 0.04811199
-0.09649399 -0.023949446 0.04720586 0.08675055 0.06106786 -0.023692865 0.060526278 0.020649612
-0.0586289 -0.023459211 0.036512524 -0.0849473 -0.06984439 0.068531044 -0.044305377 -0.014831163
0.0068769734 -0.06623775 0.0021127416 0.05003894 -0.0011553213 -0.013432982 -0.020010134 0.025484508
-0.0038703093 0.038695 0.046266273 0.0758835 -0.027066788 -0.023865206 0.022927362 -0.021438094
-0.028170552 0.06661136 0.012714326 -0.034447405 0.020132693 -0.0015398008 0.06525689 0.0055076503
0.039879985 -0.0786484 -0.018064002 0.025353488 -0.0686714 0.004819702 0.009637753 -0.047958523
-0.093311355 0.06950578 0.024015425 0.02958597 0.015375917 -0.037096765 0.0780691 -0.010332448
0.028016526 -0.032608736 -0.0024359243 -0.06028386 0.050451387 0.024868708 0.038166955 -0.09255956
-0.0054847305 -0.022001153 0.020189341 0.047051962 -0.0111806905 0.09581838 0.036839727 -0.023468964
-0.008997832 0.06837252 -0.013414385 -0.012821864 -0.029735459 0.031359076 -0.08396613 -0.031146783
-0.09089232 -0.018493269 -0.067421325 -0.08481197 -0.0028358214 0.037811495 -0.08808431 -0.042451233
0.005511451 -0.06984718 -0.0017974417 -0.023548095 -0.08853437 -0.016010135 -0.009800116 -0.008013678
-0.07979226 -0.040064007 0.02309518 -0.061359648 0.027792187 0.021460446 -0.058711175 0.005660807
0.07815376 0.0447751 0.011006784 -0.04144076 0.0063242894 0.075515434 0.0787848 0.022078961
-0.07071056 0.001216336 -0.0038808745 0.0015044449 0.047136053 -0.014852069 0.010180165 -0.027288912
-0.044225417 0.011818248 -0.09019313 -0.043581434 -0.03469686 -0.0030866803 -0.05598893 -0.025982372
0.013511042 -0.058244728 0.06062749 -0.017702684 0.03395743 0.04734176 -0.080302335 -0.010145179
-0.008072735 0.010037372 -0.0029373863 -0.0014812675 0.045042593 0.019265128 -0.06122981 0.02219867
-0.0046673077 -0.024759566 0.074196525 0.092831865 -0.0090311235 0.041469514 -0.06478013 -0.0709932
-0.052199528 0.015492625 -0.022013381 0.018723868 -0.09161417 0.011179173 0.0055373795 0.010301179
-0.020941589 -0.07004909 -0.09257961 -0.015472086 0.016808093 0.030904537 0.03398722 -0.08628402
-0.06345978 0.033193994 0.038682256 -0.08396896 -0.022262186 -0.01716828 0.09622671 -0.030603852
-0.046866965 0.025942815 0.08782096 -0.049428627 0.030547477 0.015547155 -0.04427157 0.013339362
-0.040827617 -0.064580165 -0.03811013 0.02621252 -0.022771247 0.025564477 0.014580765 0.037194878
0.0030731356 -0.045264825 -0.028721951 -0.05851734 0.013799399 0.03386757 -0.030496132 -0.024830993
-0.018512383 -0.01674999 -0.066686004 0.012350878 0.024312375 0.01025136 0.084427975 -0.036542207
0.01187502 0.06280804 -0.0023548512 -0.04836851 -0.01734098 -0.05988148 0.05918041 0.04602885
-0.0742764 -0.006073004 0.08171694 0.027485708 0.0024235654 -0.052535895 -0.061871193 -0.064409226

conv.4.bias f4 [28]
00000000: 37f2 6abd 8b16 18bd cfc1 a93b ab49 38bd
00000010: ca19 31bd 0e26 e3bc 5432 e13c 34b1 253d
00000020: 6742 96bc 958f 363d afd5 e2ba f94e 733d
00000030: 4d02 2b3d 5817 543d 30ce 4dbd 22f3 843d
00000040: e067 f83c 496b c4bc b288 31bb 2570 ecbc
00000050: 6a98 a2bb d522 f63b f0a3 9b3c 24cc d2bc
00000060: d811 2dbc 0174 9abd 7aee 843d 9172 5d3c
-0.0573599 -0.037130874 0.0051805745 -0.04499213 -0.043237485 -0.027728107 0.027489819 0.040452197
-0.01834221 0.044570524 -0.0017306114 0.059401486 0.04175024 0.051780075 -0.050245464 0.064916864
0.030322969 -0.023976939 -0.0027089533 -0.028862068 -0.004962017 0.0075114765 0.01899907 -0.025732107
-0.010563336 -0.07541657 0.06490798 0.013516084

conv.5.weight f4 [28]
00000000: 255e 843f 93c6 843f 1405 833f b63a 793f
00000010: 0c4b 843f d492 843f 8288 843f 07d8 843f
00000020: 5fc2 843f eef4 843f 8ced 833f 3b24 843f
00000030: 41ad 833f dd43 7d3f 5eec 833f a6be 843f
00000040: b46b 833f ce35 843f 350d 853f 2de3 843f
00000050: 4317 853f 0a83 843f dd15 803f 477b 843f
00000060: f10d 853f 1e16 843f 309e 833f 72e1 843f
1.0341231 1.03731 1.0235925 0.9735521 1.0335402 1.0357308 1.0354159 1.0378426
1.0371817 1.0387247 1.0306869 1.0323557 1.0287248 0.98931676 1.0306509 1.0370681
1.0267243 1.032892 1.0394655 1.0381829 1.0397724 1.035249 1.0006672 1.0350121
1.039488 1.031925 1.028265 1.03813

conv.5.bias f4 [28]
00000000: 6cd7 f73c 6683 cdbc 2356 00bb b62e ec3c
00000010: 236f f03c c868 e03c 8391 0abd 7d7f ee3c
00000020: 6d78 fabc 0421 fabc f552 f3bc c133 cebc
00000030: a95f 25bc 05c6 d43c bf9d b2bc 7360 fbbc
00000040: c881 de3c 6d61 063d 38b7 f83c 040f debc
00000050: f427 e83c 1520 f63c 5527 d43c eb1c f53c
00000060: 9534 f9bc f5e6 ecbc 2688 c2bc 2852 f8bc
0.030254088 -0.02508707 -0.0019582591 0.028830867 0.02934987 0.027393714 -0.033830177 0.029113526
-0.030575002 -0.030533321 -0.029702643 -0.025171163 -0.010093608 0.02597333 -0.021803735 -0.030685639
0.027161494 0.032807756 0.030360803 -0.02710677 0.028339364 0.030044595 0.025897661 0.029921016
-0.03042058 -0.028918723 -0.023746561 -0.030312613

conv.5.running_mean f4 [28]
00000000: 8358 1f3e 4e97 003e 8eb6 a2be 11b7 f73e
00000010: 4a77 b0bc 2626 0f3f 752e 1c3c d445 003e
00000020: 8102 03bf a723 d6bd c98d 6c3e 21d4 c83d
00000030: 164f 363e 17a9 b5be e6b0 59be 0691 00bf
00000040: e7d1 abbc efdc ca3e 3acf fc3e 80b4 39bf
00000050: 96d0 debe 2ac7 113f ea45 1c3f 4e0e 1dbe
00000060: 17a6 e8be 24f4 14be 1e89 cf3e 0ed0 3c3e
0.15561108 0.12557718 -0.31779903 0.48381856 -0.021541256 0.55917585 0.009532561 0.12526637
-0.51175696 -0.10456019 0.23100962 0.098060854 0.17803606 -0.35480568 -0.21258888 -0.5022129
-0.020974113 0.39621684 0.4937685 -0.72541046 -0.43518513 0.56944525 0.6104418 -0.15337488
-0.45439216 -0.14546257 0.405343 0.18438742

conv.5.running_var f4 [28]
00000000: 03ee 953f ad94 2f40 1cf1 e03f d897 533f
00000010: 62e2 ad3f b195 5d3f 8962 d73f 1d9d 9f3f
00000020: 55d7 3f3f c02f 943f 17fc d53f 43fd c93f
00000030: e770 d23f 87fa e93f 997d af3f c98e a03f
00000040: 6c27 9b3f bb20 5040 84f5 823f 8598 323f
00000050: 9b81 aa3f 8aec 4b3f 4d28 b83f 9beb 583f
00000060: b0ae 2040 a413 863f 21cf f53e 5b78 9e3f
1.171326 2.7434494 1.7573581 0.8265357 1.3584712 0.86556536 1.6826946 1.2469822
0.74937946 1.1577072 1.6717557 1.5780414 1.6440705 1.827958 1.3710204 1.2543575
1.2121406 3.2519977 1.0231175 0.69763976 1.3320802 0.79657805 1.4387299 0.84734505
2.510662 1.0474744 0.4800959 1.238048

fc.weight f4 [1, 700]
00000000: bdef a4bb 5c49 38bd d85c 91bc f979 213b
00000010: fab6 d7bc 96bd a03c 67f9 6c3d ff0a dd3c
00000020: 8191 d83c 418f db3b 5874 233d 772b 083d
00000030: 5409 b93c 6e87 5d3c f2e2 563d bad9 143d
00000040: ead8 5e3c e10f a13b 7813 38bb d929 edbc
00000050: 77a6 4a3d 72e3 353d 9e53 5e3d 09d5 633d
00000060: ec12 9a3d 10f2 d9bc 9516 73bd d0d7 813d
00000070: bd57 91bd c999 2bbd 576f 1bbd fcb4 6e3d
00000080: 60c8 ed3c d38f 8d3c 203c 883d 0a18 a2bc
00000090: f492 f9bc 5a7a a13c 0f73 493d 64d4 52bc
000000a0: 5b25 8dbd a2e2 fdbc a12e 0b3d 49b3 653d
000000b0: c6f7 72bd 97a6 6dbd 84f5 6f3d 0db5 c03c
000000c0: 8b6a 813d 7b1f c63c 6415 0dbd 8f90 6f3d
000000d0: 0759 593d 89ab 9fbc eb91 213d c554 473c
000000e0: 98c1 7e3b 3c7b 44bd 335d 643b 5cc7 913b
000000f0: 3faa d0bc 7403 f13c 9dbf 183d 7b54 8d3b
00000100: 7f67 21bc ef7c f33c 74f1 463d 6a88 4f3d
00000110: c453 eebb 8a38 323d 8b57 e2ba 5072 093d
00000120: 5d2d 963d f40a 393d 9e94 473d 0367 da3c
00000130: 4f6d 8b3d a74b 55bc d8a7 f73c 3776 8c3c
00000140: a19b 38b9 3aca c23b 006c cd3b 61d3 09bc
00000150: 748e 5cbd 3b34 dcbc 2d91 263c a85a a7bc
00000160: 6230 31bd e9e1 68bd 1f77 283d a44e 0839
00000170: 7a6d 36bd 64a7 c7bc f384 c73c 9006 8fbc
00000180: 703a 463d 8321 93bb 02d4 41bc 6fba 80bd
00000190: 7657 11bd c342 723d a4c4 f83b feb2 733d
000001a0: b3f9 513d 2016 20bd 734e 3cbd f14a 8e3d
000001b0: 4b26 2cbd e964 e33c 4e85 62bb 578f 52bd
000001c0: f9c5 073c 649e 13bd 21b9 443c f75a f7bc
000001d0: 3b63 f8bc b466 1ebc 5a47 f8ba 3846 aab9
000001e0: c640 9f3a c017 57bc 6070 523d 26c8 af3c
000001f0: b58c 783c 8789 823c 7cc7 ee3c 38d7 873d
00000200: 8dc0 303d 47b5 1cbc c18e b63c 3404 4e3d
00000210: 0152 863d 5a37 4c3c a818 953d dfe8 393d
00000220: bdeb 9b3c 6a9e 483c d93d e03c 8d00 273c
00000230: e3dc 2f3d f2d3 153c f5a2 5a3d 2bf0 9c3b
00000240: e0ac 093d 3a31 443d e540 fabc e8b6 473d
00000250: fbcf 613d 0967 a93c b53f 76bd b4ad a5bb
00000260: b5ff 95bc f4ca 023d 63e3 53bd 4465 02bd
00000270: 25d9 163d 1289 ca3c 8539 0abd c2a6 e33c
00000280: b21c 7f3d 19e4 bdba 1e59 3a3c 7c78 acbb
00000290: 8ef6 033d b2e1 8dbd fb51 553d c117 1d3d
000002a0: cef7 e93c f838 e3bc 2099 93bd 8676 883d
000002b0: 5053 b7bc 72d1 3bbd ae31 3fbd f8c3 72bd
000002c0: fb9b 3a3d 55c5 1d3d cd79 c73c 9938 013d
000002d0: db07 6b3d 88bc 78bd ba6f 333d f99e 913d
000002e0: e924 ee3c f275 963c e744 60ba a1b5 1b3d
000002f0: 6c8d b53c 9ee9 743b 4b98 ab3b 6b75 013d
00000300: bd53 ae3b 6c81 043d 0512 4d3d e732 e83c
00000310: be97 393d 7cc4 8d3d b997 c6bb 9c13 1d3d
00000320: 452d 48bc 2b58 353d c665 71bd aa62 5fbc
00000330: 14e3 1bbd 6779 333c 1aac 87bd fd78 c9bc
00000340: c01b 5dbd be23 3abd a07a 85bd 943a ab3b
00000350: 9979 3fbc 3365 bd3b 2439 80bd 6188 2c3d
00000360: 2a92 903d dc4b 23bd 0f7b 21bd c4e1 08bd
00000370: 3409 80bd 349d e5bc e3e0 afbc fdb2 b9bc
00000380: b8e3 2fbd b5ca 66bd 75e3 31bc 1abb 37bd
00000390: c8ef 6bbc 9f3d 79bd 28bf 89bd 8895 643d
000003a0: 3119 82bd 97da 46bd 845a 3d3c 4039 89bc
000003b0: 21c4 84bd 1772 77bd dc17 91bc 8efc 2dbd
000003c0: f10c 90bd 771a dbbc 38b4 81bd 0398 ecbc
000003d0: 0465 86bd 1b28 f4bc 0b05 fcbb 0525 61bd
000003e0: 15c6 47bd e0af 98bd a914 84bd 8293 763b
000003f0: 8197 22bc cefa e7bc ea37 38bd f2a6 93bc
-0.005033462 -0.044991836 -0.017744467 0.0024639352 -0.026332367 0.019621652 0.057855036 0.026982782
0.02643657 0.006700427 0.039905876 0.033244576 0.022587456 0.0135210585 0.052462526 0.036340453
0.013601521 0.004915223 -0.0028087776 -0.028950619 0.04947516 0.044406362 0.054278962 0.055623088
0.0752314 -0.026604682 -0.059347708 0.06339991 -0.07096813 -0.041894708 -0.03794798 0.05827807
0.02902621 0.017280495 0.06652093 -0.019786853 -0.03046558 0.019711662 0.049181994 -0.012868021
-0.068918906 -0.030991856 0.033980016 0.056079183 -0.059318326 -0.0580202 0.05858375 0.023523832
0.063191496 0.024184933 -0.034444228 0.05848747 0.05306342 -0.019490974 0.0394458 0.012166207
0.0038872715 -0.047969088 0.003484559 0.0044488143 -0.025471805 0.029420592 0.03729211 0.0043130494
-0.009851336 0.029722659 0.04857011 0.050667204 -0.0072731692 0.04351095 -0.0017268521 0.033556283
0.07332871 0.04517646 0.048725717 0.026660448 0.06807958 -0.013018525 0.030231401 0.017146213
-0.00017605584 0.0059445174 0.006268978 -0.008412213 -0.05384679 -0.026880374 0.010166449 -0.02042897
-0.043259032 -0.05685607 0.041129228 0.00012999267 -0.044538 -0.02437181 0.024355387 -0.017459184
0.048395574 -0.004490079 -0.011830332 -0.062855594 -0.0354838 0.0591457 0.0075918008 0.059496872
0.051263522 -0.0390836 -0.045973253 0.06947888 -0.042028707 0.027758079 -0.003456432 -0.05140623
0.008286946 -0.036039725 0.012007029 -0.030194743 -0.030320754 -0.009668041 -0.0018942163 -0.00032477244
0.0012150041 -0.013128221 0.0513767 0.021457743 0.015170266 0.015934719 0.029147856 0.066328466
0.04315238 -0.009564704 0.022284867 0.050296977 0.0655861 0.012464369 0.072800934 0.0453881
0.019033307 0.0122448 0.027373241 0.010193002 0.042935263 0.00914477 0.053378064 0.0047893724
0.033612132 0.04789851 -0.030548522 0.048758417 0.055129986 0.020679014 -0.06011935 -0.0050561074
-0.018310407 0.031931832 -0.051730525 -0.031834856 0.03682818 0.024723563 -0.03374626 0.027789477
0.062283225 -0.0014487534 0.011373786 -0.0052633863 0.032217555 -0.069278136 0.052080136 0.03835273
0.028560545 -0.027737126 -0.07206941 0.066632316 -0.022378594 -0.04585404 -0.046678238 -0.05926892
0.04555891 0.03851827 0.024350071 0.031548116 0.05738054 -0.060726672 0.043807723 0.071104
0.029070335 0.018366788 -0.0008555189 0.03801501 0.022162162 0.0037370692 0.0052366606 0.03160612
0.005320041 0.03234999 0.050066013 0.028344585 0.04531073 0.06922242 -0.006060567 0.03834878
-0.012217824 0.044273537 -0.05893495 -0.013634363 -0.038058355 0.010954238 -0.06624623 -0.024593825
-0.053981543 -0.045444243 -0.065175295 0.005225489 -0.011686706 0.005779886 -0.06260899 0.04212225
0.070591286 -0.039867267 -0.039424 -0.033418432 -0.06251755 -0.028029062 -0.021469539 -0.022668356
-0.04294178 -0.05634566 -0.010857453 -0.04485617 -0.01440043 -0.060849782 -0.06725913 0.055806667
-0.06352461 -0.048548307 0.011557225 -0.016750932 -0.06482721 -0.06041154 -0.017711572 -0.042477183
-0.070337184 -0.026746018 -0.06333202 -0.028881079 -0.06562236 -0.02980428 -0.007691031 -0.054966945
-0.04877289 -0.074554205 -0.06449253 0.0037624543 -0.009923817 -0.028317835 -0.0449752 -0.018023942
